Model: "sequential_3"
_________________________________________________________________
Layer (type)                 Output Shape              Param #   
=================================================================
time_distributed_17 (TimeDis (None, 10, 58, 40, 96)    46560     
_________________________________________________________________
time_distributed_18 (TimeDis (None, 10, 28, 19, 96)    0         
_________________________________________________________________
time_distributed_19 (TimeDis (None, 10, 28, 19, 96)    0         
_________________________________________________________________
time_distributed_20 (TimeDis (None, 10, 28, 19, 256)   614656    
_________________________________________________________________
time_distributed_21 (TimeDis (None, 10, 13, 9, 256)    0         
_________________________________________________________________
time_distributed_22 (TimeDis (None, 10, 13, 9, 256)    0         
_________________________________________________________________
time_distributed_23 (TimeDis (None, 10, 13, 9, 384)    885120    
_________________________________________________________________
time_distributed_24 (TimeDis (None, 10, 13, 9, 1)      3457      
_________________________________________________________________
time_distributed_25 (TimeDis (None, 10, 13, 9, 1)      10        
_________________________________________________________________
time_distributed_26 (TimeDis (None, 10, 6, 4, 1)       0         
_________________________________________________________________
time_distributed_27 (TimeDis (None, 10, 6, 4, 1)       0         
_________________________________________________________________
time_distributed_28 (TimeDis (None, 10, 24)            0         
_________________________________________________________________
lstm_1 (LSTM)                (None, 128)               78336     
_________________________________________________________________
dense_4 (Dense)              (None, 2)                 258       
=================================================================
Total params: 1,628,397
Trainable params: 1,628,397
Non-trainable params: 0
_________________________________________________________________
Train on 45 samples, validate on 10 samples
Epoch 1/25
45/45 [==============================] - 369s 8s/sample - loss: 0.6882 - acc: 0.6667 - val_loss: 0.6872 - val_acc: 0.6000
Epoch 2/25
…
