Model: "sequential_1"
_________________________________________________________________
Layer (type)                 Output Shape              Param #   
=================================================================
conv2d_5 (Conv2D)            (None, 307, 85, 96)       46560     
_________________________________________________________________
dropout_3 (Dropout)          (None, 307, 85, 96)       0         
_________________________________________________________________
max_pooling2d_3 (MaxPooling2 (None, 153, 42, 96)       0         
_________________________________________________________________
dropout_4 (Dropout)          (None, 153, 42, 96)       0         
_________________________________________________________________
conv2d_6 (Conv2D)            (None, 153, 42, 256)      614656    
_________________________________________________________________
dropout_5 (Dropout)          (None, 153, 42, 256)      0         
_________________________________________________________________
max_pooling2d_4 (MaxPooling2 (None, 76, 20, 256)       0         
_________________________________________________________________
dropout_6 (Dropout)          (None, 76, 20, 256)       0         
_________________________________________________________________
conv2d_7 (Conv2D)            (None, 76, 20, 384)       885120    
_________________________________________________________________
dropout_7 (Dropout)          (None, 76, 20, 384)       0         
_________________________________________________________________
conv2d_8 (Conv2D)            (None, 76, 20, 384)       1327488   
_________________________________________________________________
dropout_8 (Dropout)          (None, 76, 20, 384)       0         
_________________________________________________________________
conv2d_9 (Conv2D)            (None, 76, 20, 256)       884992    
_________________________________________________________________
dropout_9 (Dropout)          (None, 76, 20, 256)       0         
_________________________________________________________________
max_pooling2d_5 (MaxPooling2 (None, 37, 9, 256)        0         
_________________________________________________________________
dropout_10 (Dropout)         (None, 37, 9, 256)        0         
_________________________________________________________________
flatten_1 (Flatten)          (None, 85248)             0         
_________________________________________________________________
dense_3 (Dense)              (None, 1024)              87294976  
_________________________________________________________________
dense_4 (Dense)              (None, 1024)              1049600   
_________________________________________________________________
dense_5 (Dense)              (None, 2)                 2050      
=================================================================
Total params: 92,105,442
Trainable params: 92,105,442
Non-trainable params: 0
_________________________________________________________________
Train on 45 samples, validate on 10 samples
Epoch 1/100
45/45 [==============================] - 34s 750ms/sample - loss: 19.1901 - acc: 0.4667 - val_loss: 0.6930 - val_acc: 0.5000
Epoch 2/100
…
