Model: "sequential"
_________________________________________________________________
Layer (type)                 Output Shape              Param #   
=================================================================
time_distributed (TimeDistri (None, 10, 58, 40, 96)    46560     
_________________________________________________________________
time_distributed_1 (TimeDist (None, 10, 28, 19, 96)    0         
_________________________________________________________________
time_distributed_2 (TimeDist (None, 10, 28, 19, 96)    0         
_________________________________________________________________
time_distributed_3 (TimeDist (None, 10, 28, 19, 256)   614656    
_________________________________________________________________
time_distributed_4 (TimeDist (None, 10, 13, 9, 256)    0         
_________________________________________________________________
time_distributed_5 (TimeDist (None, 10, 13, 9, 256)    0         
_________________________________________________________________
time_distributed_6 (TimeDist (None, 10, 13, 9, 384)    885120    
_________________________________________________________________
time_distributed_7 (TimeDist (None, 10, 13, 9, 1)      3457      
_________________________________________________________________
time_distributed_8 (TimeDist (None, 10, 13, 9, 1)      10        
_________________________________________________________________
time_distributed_9 (TimeDist (None, 10, 6, 4, 1)       0         
_________________________________________________________________
time_distributed_10 (TimeDis (None, 10, 6, 4, 1)       0         
_________________________________________________________________
time_distributed_11 (TimeDis (None, 10, 24)            0         
_________________________________________________________________
lstm (LSTM)                  (None, 128)               78336     
_________________________________________________________________
dense (Dense)                (None, 2)                 258       
=================================================================
Total params: 1,628,397
Trainable params: 1,628,397
Non-trainable params: 0
_________________________________________________________________
Train on 45 samples, validate on 10 samples
WARNING:tensorflow:From C:\Users\Administrator\anaconda3\lib\site-packages\tensorflow\python\ops\math_grad.py:1250: add_dispatch_support.<locals>.wrapper (from tensorflow.python.ops.array_ops) is deprecated and will be removed in a future version.
…
