Model: "sequential_2"
_________________________________________________________________
Layer (type)                 Output Shape              Param #   
=================================================================
time_distributed_29 (TimeDis (None, 10, 58, 40, 96)    46560     
_________________________________________________________________
time_distributed_30 (TimeDis (None, 10, 58, 40, 96)    0         
_________________________________________________________________
time_distributed_31 (TimeDis (None, 10, 28, 19, 96)    0         
_________________________________________________________________
time_distributed_32 (TimeDis (None, 10, 28, 19, 96)    0         
_________________________________________________________________
time_distributed_33 (TimeDis (None, 10, 28, 19, 256)   614656    
_________________________________________________________________
time_distributed_34 (TimeDis (None, 10, 28, 19, 256)   0         
_________________________________________________________________
time_distributed_35 (TimeDis (None, 10, 13, 9, 256)    0         
_________________________________________________________________
time_distributed_36 (TimeDis (None, 10, 13, 9, 256)    0         
_________________________________________________________________
time_distributed_37 (TimeDis (None, 10, 13, 9, 384)    885120    
_________________________________________________________________
time_distributed_38 (TimeDis (None, 10, 13, 9, 384)    0         
_________________________________________________________________
time_distributed_39 (TimeDis (None, 10, 13, 9, 1)      3457      
_________________________________________________________________
time_distributed_40 (TimeDis (None, 10, 13, 9, 1)      0         
_________________________________________________________________
time_distributed_41 (TimeDis (None, 10, 13, 9, 1)      10        
_________________________________________________________________
time_distributed_42 (TimeDis (None, 10, 13, 9, 1)      0         
_________________________________________________________________
time_distributed_43 (TimeDis (None, 10, 6, 4, 1)       0         
_________________________________________________________________
time_distributed_44 (TimeDis (None, 10, 6, 4, 1)       0         
_________________________________________________________________
time_distributed_45 (TimeDis (None, 10, 24)            0         
_________________________________________________________________
lstm_2 (LSTM)                (None, 128)               78336     
_________________________________________________________________
dense_2 (Dense)              (None, 2)                 258       
=================================================================
Total params: 1,628,397
Trainable params: 1,628,397
Non-trainable params: 0
_________________________________________________________________
Train on 45 samples, validate on 10 samples
Epoch 1/100
45/45 [==============================] - 12s 272ms/sample - loss: 0.6897 - acc: 0.6222 - val_loss: 0.6659 - val_acc: 0.8000
Epoch 2/100
…
