Model: "sequential_5"
_________________________________________________________________
Layer (type)                 Output Shape              Param #   
=================================================================
time_distributed_75 (TimeDis (None, 10, 58, 40, 96)    46560     
_________________________________________________________________
time_distributed_76 (TimeDis (None, 10, 58, 40, 96)    0         
_________________________________________________________________
time_distributed_77 (TimeDis (None, 10, 28, 19, 96)    0         
_________________________________________________________________
time_distributed_78 (TimeDis (None, 10, 28, 19, 96)    0         
_________________________________________________________________
time_distributed_79 (TimeDis (None, 10, 28, 19, 256)   614656    
_________________________________________________________________
time_distributed_80 (TimeDis (None, 10, 28, 19, 256)   0         
_________________________________________________________________
time_distributed_81 (TimeDis (None, 10, 13, 9, 256)    0         
_________________________________________________________________
time_distributed_82 (TimeDis (None, 10, 13, 9, 256)    0         
_________________________________________________________________
time_distributed_83 (TimeDis (None, 10, 13, 9, 384)    885120    
_________________________________________________________________
time_distributed_84 (TimeDis (None, 10, 13, 9, 384)    0         
_________________________________________________________________
time_distributed_85 (TimeDis (None, 10, 13, 9, 1)      3457      
_________________________________________________________________
time_distributed_86 (TimeDis (None, 10, 13, 9, 1)      0         
_________________________________________________________________
time_distributed_87 (TimeDis (None, 10, 13, 9, 1)      10        
_________________________________________________________________
time_distributed_88 (TimeDis (None, 10, 13, 9, 1)      0         
_________________________________________________________________
time_distributed_89 (TimeDis (None, 10, 6, 4, 1)       0         
_________________________________________________________________
time_distributed_90 (TimeDis (None, 10, 6, 4, 1)       0         
_________________________________________________________________
time_distributed_91 (TimeDis (None, 10, 24)            0         
_________________________________________________________________
lstm_5 (LSTM)                (None, 128)               78336     
_________________________________________________________________
dense_5 (Dense)              (None, 2)                 258       
=================================================================
Total params: 1,628,397
Trainable params: 1,628,397
Non-trainable params: 0
_________________________________________________________________
Train on 45 samples, validate on 10 samples
Epoch 1/100
45/45 [==============================] - 14s 313ms/sample - loss: 0.7329 - acc: 0.6889 - val_loss: 0.7116 - val_acc: 0.4000
Epoch 2/100
…
