Model: "sequential_3"
_________________________________________________________________
Layer (type)                 Output Shape              Param #   
=================================================================
conv2d_15 (Conv2D)           (None, 307, 85, 96)       46560     
_________________________________________________________________
max_pooling2d_9 (MaxPooling2 (None, 153, 42, 96)       0         
_________________________________________________________________
dropout_19 (Dropout)         (None, 153, 42, 96)       0         
_________________________________________________________________
conv2d_16 (Conv2D)           (None, 153, 42, 256)      614656    
_________________________________________________________________
max_pooling2d_10 (MaxPooling (None, 76, 20, 256)       0         
_________________________________________________________________
dropout_20 (Dropout)         (None, 76, 20, 256)       0         
_________________________________________________________________
conv2d_17 (Conv2D)           (None, 76, 20, 384)       885120    
_________________________________________________________________
conv2d_18 (Conv2D)           (None, 76, 20, 384)       1327488   
_________________________________________________________________
conv2d_19 (Conv2D)           (None, 76, 20, 256)       884992    
_________________________________________________________________
max_pooling2d_11 (MaxPooling (None, 37, 9, 256)        0         
_________________________________________________________________
dropout_21 (Dropout)         (None, 37, 9, 256)        0         
_________________________________________________________________
flatten_3 (Flatten)          (None, 85248)             0         
_________________________________________________________________
dense_9 (Dense)              (None, 1024)              87294976  
_________________________________________________________________
dense_10 (Dense)             (None, 1024)              1049600   
_________________________________________________________________
dense_11 (Dense)             (None, 2)                 2050      
=================================================================
Total params: 92,105,442
Trainable params: 92,105,442
Non-trainable params: 0
_________________________________________________________________
Train on 45 samples, validate on 10 samples
Epoch 1/100
45/45 [==============================] - 30s 674ms/sample - loss: 8.4982 - acc: 0.4667 - val_loss: 1.2052 - val_acc: 0.4000
Epoch 2/100
…
