Model: "sequential_2"
_________________________________________________________________
Layer (type)                 Output Shape              Param #   
=================================================================
conv2d_10 (Conv2D)           (None, 307, 85, 96)       46560     
_________________________________________________________________
dropout_11 (Dropout)         (None, 307, 85, 96)       0         
_________________________________________________________________
max_pooling2d_6 (MaxPooling2 (None, 153, 42, 96)       0         
_________________________________________________________________
dropout_12 (Dropout)         (None, 153, 42, 96)       0         
_________________________________________________________________
conv2d_11 (Conv2D)           (None, 153, 42, 256)      614656    
_________________________________________________________________
dropout_13 (Dropout)         (None, 153, 42, 256)      0         
_________________________________________________________________
max_pooling2d_7 (MaxPooling2 (None, 76, 20, 256)       0         
_________________________________________________________________
dropout_14 (Dropout)         (None, 76, 20, 256)       0         
_________________________________________________________________
conv2d_12 (Conv2D)           (None, 76, 20, 384)       885120    
_________________________________________________________________
dropout_15 (Dropout)         (None, 76, 20, 384)       0         
_________________________________________________________________
conv2d_13 (Conv2D)           (None, 76, 20, 384)       1327488   
_________________________________________________________________
dropout_16 (Dropout)         (None, 76, 20, 384)       0         
_________________________________________________________________
conv2d_14 (Conv2D)           (None, 76, 20, 256)       884992    
_________________________________________________________________
dropout_17 (Dropout)         (None, 76, 20, 256)       0         
_________________________________________________________________
max_pooling2d_8 (MaxPooling2 (None, 37, 9, 256)        0         
_________________________________________________________________
dropout_18 (Dropout)         (None, 37, 9, 256)        0         
_________________________________________________________________
flatten_2 (Flatten)          (None, 85248)             0         
_________________________________________________________________
dense_6 (Dense)              (None, 1024)              87294976  
_________________________________________________________________
dense_7 (Dense)              (None, 1024)              1049600   
_________________________________________________________________
dense_8 (Dense)              (None, 2)                 2050      
=================================================================
Total params: 92,105,442
Trainable params: 92,105,442
Non-trainable params: 0
_________________________________________________________________
Train on 45 samples, validate on 10 samples
Epoch 1/100
45/45 [==============================] - 29s 642ms/sample - loss: 17.4285 - acc: 0.4222 - val_loss: 0.7000 - val_acc: 0.4000
Epoch 2/100
…
