Model: "sequential"
_________________________________________________________________
Layer (type)                 Output Shape              Param #   
=================================================================
conv2d (Conv2D)              (None, 307, 85, 96)       46560     
_________________________________________________________________
dropout (Dropout)            (None, 307, 85, 96)       0         
_________________________________________________________________
max_pooling2d (MaxPooling2D) (None, 153, 42, 96)       0         
_________________________________________________________________
dropout_1 (Dropout)          (None, 153, 42, 96)       0         
_________________________________________________________________
conv2d_1 (Conv2D)            (None, 153, 42, 256)      614656    
_________________________________________________________________
dropout_2 (Dropout)          (None, 153, 42, 256)      0         
_________________________________________________________________
max_pooling2d_1 (MaxPooling2 (None, 76, 20, 256)       0         
_________________________________________________________________
dropout_3 (Dropout)          (None, 76, 20, 256)       0         
_________________________________________________________________
conv2d_2 (Conv2D)            (None, 76, 20, 384)       885120    
_________________________________________________________________
dropout_4 (Dropout)          (None, 76, 20, 384)       0         
_________________________________________________________________
conv2d_3 (Conv2D)            (None, 76, 20, 384)       1327488   
_________________________________________________________________
dropout_5 (Dropout)          (None, 76, 20, 384)       0         
_________________________________________________________________
conv2d_4 (Conv2D)            (None, 76, 20, 256)       884992    
_________________________________________________________________
dropout_6 (Dropout)          (None, 76, 20, 256)       0         
_________________________________________________________________
max_pooling2d_2 (MaxPooling2 (None, 37, 9, 256)        0         
_________________________________________________________________
dropout_7 (Dropout)          (None, 37, 9, 256)        0         
_________________________________________________________________
flatten (Flatten)            (None, 85248)             0         
_________________________________________________________________
dense (Dense)                (None, 1024)              87294976  
_________________________________________________________________
dense_1 (Dense)              (None, 1024)              1049600   
_________________________________________________________________
dense_2 (Dense)              (None, 2)                 2050      
=================================================================
Total params: 92,105,442
Trainable params: 92,105,442
Non-trainable params: 0
_________________________________________________________________
Train on 45 samples, validate on 10 samples
Epoch 1/25
45/45 [==============================] - 1341s 30s/sample - loss: 30.3755 - acc: 0.4000 - val_loss: 0.6914 - val_acc: 0.5000
Epoch 2/25
…
