Model: "sequential_3"
_________________________________________________________________
Layer (type)                 Output Shape              Param #   
=================================================================
time_distributed_46 (TimeDis (None, 10, 58, 40, 96)    46560     
_________________________________________________________________
time_distributed_47 (TimeDis (None, 10, 28, 19, 96)    0         
_________________________________________________________________
time_distributed_48 (TimeDis (None, 10, 28, 19, 96)    0         
_________________________________________________________________
time_distributed_49 (TimeDis (None, 10, 28, 19, 256)   614656    
_________________________________________________________________
time_distributed_50 (TimeDis (None, 10, 13, 9, 256)    0         
_________________________________________________________________
time_distributed_51 (TimeDis (None, 10, 13, 9, 256)    0         
_________________________________________________________________
time_distributed_52 (TimeDis (None, 10, 13, 9, 384)    885120    
_________________________________________________________________
time_distributed_53 (TimeDis (None, 10, 13, 9, 1)      3457      
_________________________________________________________________
time_distributed_54 (TimeDis (None, 10, 13, 9, 1)      10        
_________________________________________________________________
time_distributed_55 (TimeDis (None, 10, 6, 4, 1)       0         
_________________________________________________________________
time_distributed_56 (TimeDis (None, 10, 6, 4, 1)       0         
_________________________________________________________________
time_distributed_57 (TimeDis (None, 10, 24)            0         
_________________________________________________________________
lstm_3 (LSTM)                (None, 128)               78336     
_________________________________________________________________
dense_3 (Dense)              (None, 2)                 258       
=================================================================
Total params: 1,628,397
Trainable params: 1,628,397
Non-trainable params: 0
_________________________________________________________________
Train on 45 samples, validate on 10 samples
Epoch 1/25
45/45 [==============================] - 11s 239ms/sample - loss: 0.6884 - acc: 0.6222 - val_loss: 0.7020 - val_acc: 0.4000
Epoch 2/25
…
