Model: "sequential_4"
_________________________________________________________________
Layer (type)                 Output Shape              Param #   
=================================================================
time_distributed_58 (TimeDis (None, 10, 58, 40, 96)    46560     
_________________________________________________________________
time_distributed_59 (TimeDis (None, 10, 58, 40, 96)    0         
_________________________________________________________________
time_distributed_60 (TimeDis (None, 10, 28, 19, 96)    0         
_________________________________________________________________
time_distributed_61 (TimeDis (None, 10, 28, 19, 96)    0         
_________________________________________________________________
time_distributed_62 (TimeDis (None, 10, 28, 19, 256)   614656    
_________________________________________________________________
time_distributed_63 (TimeDis (None, 10, 28, 19, 256)   0         
_________________________________________________________________
time_distributed_64 (TimeDis (None, 10, 13, 9, 256)    0         
_________________________________________________________________
time_distributed_65 (TimeDis (None, 10, 13, 9, 256)    0         
_________________________________________________________________
time_distributed_66 (TimeDis (None, 10, 13, 9, 384)    885120    
_________________________________________________________________
time_distributed_67 (TimeDis (None, 10, 13, 9, 384)    0         
_________________________________________________________________
time_distributed_68 (TimeDis (None, 10, 13, 9, 1)      3457      
_________________________________________________________________
time_distributed_69 (TimeDis (None, 10, 13, 9, 1)      0         
_________________________________________________________________
time_distributed_70 (TimeDis (None, 10, 13, 9, 1)      10        
_________________________________________________________________
time_distributed_71 (TimeDis (None, 10, 13, 9, 1)      0         
_________________________________________________________________
time_distributed_72 (TimeDis (None, 10, 6, 4, 1)       0         
_________________________________________________________________
time_distributed_73 (TimeDis (None, 10, 6, 4, 1)       0         
_________________________________________________________________
time_distributed_74 (TimeDis (None, 10, 24)            0         
_________________________________________________________________
lstm_4 (LSTM)                (None, 128)               78336     
_________________________________________________________________
dense_4 (Dense)              (None, 2)                 258       
=================================================================
Total params: 1,628,397
Trainable params: 1,628,397
Non-trainable params: 0
_________________________________________________________________
Train on 45 samples, validate on 10 samples
Epoch 1/25
45/45 [==============================] - 14s 301ms/sample - loss: 0.6875 - acc: 0.6444 - val_loss: 0.6748 - val_acc: 0.7000
Epoch 2/25
…
